…
/home/divesh-basina/Documents/venv/lib/python3.12/site-packages/albumentations/core/validation.py:114: UserWarning: ShiftScaleRotate is a special case of Affine transform. Please use Affine transform instead.
  original_init(self, **validated_kwargs)
##DEBUG## Dataset_list: ['CheXpertMini']
num_classes_list: [14]
##DEBUG## Head 0: CheXpertMini -> 14 classes
Loaded with msg: _IncompatibleKeys(missing_keys=['head.norm.weight', 'head.norm.bias', 'head.fc.weight', 'head.fc.bias'], unexpected_keys=[])
Loaded with msg: _IncompatibleKeys(missing_keys=['head.norm.weight', 'head.norm.bias', 'head.fc.weight', 'head.fc.bias'], unexpected_keys=[])
ArkConvNeXt(
  (backbone): ConvNeXt(
    (stem): Sequential(
      (0): Conv2d(3, 128, kernel_size=(4, 4), stride=(4, 4))
      (1): LayerNorm2d((128,), eps=1e-06, elementwise_affine=True)
    )
    (stages): Sequential(
      (0): ConvNeXtStage(
        (downsample): Identity()
        (blocks): Sequential(
          (0): ConvNeXtBlock(
            (conv_dw): Conv2d(128, 128, kernel_size=(7, 7), stride=(1, 1), padding=(3, 3), groups=128)
            (norm): LayerNorm((128,), eps=1e-06, elementwise_affine=True)
            (mlp): Mlp(
              (fc1): Linear(in_features=128, out_features=512, bias=True)
              (act): GELU()
              (drop1): Dropout(p=0.0, inplace=False)
              (norm): Identity()
              (fc2): Linear(in_features=512, out_features=128, bias=True)
              (drop2): Dropout(p=0.0, inplace=False)
            )
            (shortcut): Identity()
            (drop_path): Identity()
          )
          (1): ConvNeXtBlock(
            (conv_dw): Conv2d(128, 128, kernel_size=(7, 7), stride=(1, 1), padding=(3, 3), groups=128)
            (norm): LayerNorm((128,), eps=1e-06, elementwise_affine=True)
            (mlp): Mlp(
              (fc1): Linear(in_features=128, out_features=512, bias=True)
              (act): GELU()
              (drop1): Dropout(p=0.0, inplace=False)
              (norm): Identity()
              (fc2): Linear(in_features=512, out_features=128, bias=True)
              (drop2): Dropout(p=0.0, inplace=False)
            )
            (shortcut): Identity()
            (drop_path): Identity()
          )
          (2): ConvNeXtBlock(
            (conv_dw): Conv2d(128, 128, kernel_size=(7, 7), stride=(1, 1), padding=(3, 3), groups=128)
            (norm): LayerNorm((128,), eps=1e-06, elementwise_affine=True)
            (mlp): Mlp(
              (fc1): Linear(in_features=128, out_features=512, bias=True)
              (act): GELU()
              (drop1): Dropout(p=0.0, inplace=False)
              (norm): Identity()
              (fc2): Linear(in_features=512, out_features=128, bias=True)
              (drop2): Dropout(p=0.0, inplace=False)
            )
            (shortcut): Identity()
            (drop_path): Identity()
          )
        )
      )
      (1): ConvNeXtStage(
        (downsample): Sequential(
          (0): LayerNorm2d((128,), eps=1e-06, elementwise_affine=True)
          (1): Conv2d(128, 256, kernel_size=(2, 2), stride=(2, 2))
        )
        (blocks): Sequential(
          (0): ConvNeXtBlock(
            (conv_dw): Conv2d(256, 256, kernel_size=(7, 7), stride=(1, 1), padding=(3, 3), groups=256)
            (norm): LayerNorm((256,), eps=1e-06, elementwise_affine=True)
            (mlp): Mlp(
              (fc1): Linear(in_features=256, out_features=1024, bias=True)
              (act): GELU()
              (drop1): Dropout(p=0.0, inplace=False)
              (norm): Identity()
              (fc2): Linear(in_features=1024, out_features=256, bias=True)
              (drop2): Dropout(p=0.0, inplace=False)
            )
            (shortcut): Identity()
            (drop_path): Identity()
          )
          (1): ConvNeXtBlock(
            (conv_dw): Conv2d(256, 256, kernel_size=(7, 7), stride=(1, 1), padding=(3, 3), groups=256)
            (norm): LayerNorm((256,), eps=1e-06, elementwise_affine=True)
            (mlp): Mlp(
              (fc1): Linear(in_features=256, out_features=1024, bias=True)
              (act): GELU()
              (drop1): Dropout(p=0.0, inplace=False)
              (norm): Identity()
              (fc2): Linear(in_features=1024, out_features=256, bias=True)
              (drop2): Dropout(p=0.0, inplace=False)
            )
            (shortcut): Identity()
            (drop_path): Identity()
          )
          (2): ConvNeXtBlock(
            (conv_dw): Conv2d(256, 256, kernel_size=(7, 7), stride=(1, 1), padding=(3, 3), groups=256)
            (norm): LayerNorm((256,), eps=1e-06, elementwise_affine=True)
            (mlp): Mlp(
              (fc1): Linear(in_features=256, out_features=1024, bias=True)
              (act): GELU()
              (drop1): Dropout(p=0.0, inplace=False)
              (norm): Identity()
              (fc2): Linear(in_features=1024, out_features=256, bias=True)
              (drop2): Dropout(p=0.0, inplace=False)
            )
            (shortcut): Identity()
            (drop_path): Identity()
          )
        )
      )
      (2): ConvNeXtStage(
        (downsample): Sequential(
          (0): LayerNorm2d((256,), eps=1e-06, elementwise_affine=True)
          (1): Conv2d(256, 512, kernel_size=(2, 2), stride=(2, 2))
        )
        (blocks): Sequential(
          (0): ConvNeXtBlock(
            (conv_dw): Conv2d(512, 512, kernel_size=(7, 7), stride=(1, 1), padding=(3, 3), groups=512)
            (norm): LayerNorm((512,), eps=1e-06, elementwise_affine=True)
            (mlp): Mlp(
              (fc1): Linear(in_features=512, out_features=2048, bias=True)
              (act): GELU()
              (drop1): Dropout(p=0.0, inplace=False)
              (norm): Identity()
              (fc2): Linear(in_features=2048, out_features=512, bias=True)
              (drop2): Dropout(p=0.0, inplace=False)
            )
            (shortcut): Identity()
            (drop_path): Identity()
          )
          (1): ConvNeXtBlock(
            (conv_dw): Conv2d(512, 512, kernel_size=(7, 7), stride=(1, 1), padding=(3, 3), groups=512)
            (norm): LayerNorm((512,), eps=1e-06, elementwise_affine=True)
            (mlp): Mlp(
              (fc1): Linear(in_features=512, out_features=2048, bias=True)
              (act): GELU()
              (drop1): Dropout(p=0.0, inplace=False)
              (norm): Identity()
              (fc2): Linear(in_features=2048, out_features=512, bias=True)
              (drop2): Dropout(p=0.0, inplace=False)
            )
            (shortcut): Identity()
            (drop_path): Identity()
          )
          (2): ConvNeXtBlock(
            (conv_dw): Conv2d(512, 512, kernel_size=(7, 7), stride=(1, 1), padding=(3, 3), groups=512)
            (norm): LayerNorm((512,), eps=1e-06, elementwise_affine=True)
            (mlp): Mlp(
              (fc1): Linear(in_features=512, out_features=2048, bias=True)
              (act): GELU()
              (drop1): Dropout(p=0.0, inplace=False)
              (norm): Identity()
              (fc2): Linear(in_features=2048, out_features=512, bias=True)
              (drop2): Dropout(p=0.0, inplace=False)
            )
            (shortcut): Identity()
            (drop_path): Identity()
          )
          (3): ConvNeXtBlock(
            (conv_dw): Conv2d(512, 512, kernel_size=(7, 7), stride=(1, 1), padding=(3, 3), groups=512)
            (norm): LayerNorm((512,), eps=1e-06, elementwise_affine=True)
            (mlp): Mlp(
              (fc1): Linear(in_features=512, out_features=2048, bias=True)
              (act): GELU()
              (drop1): Dropout(p=0.0, inplace=False)
              (norm): Identity()
              (fc2): Linear(in_features=2048, out_features=512, bias=True)
              (drop2): Dropout(p=0.0, inplace=False)
            )
            (shortcut): Identity()
            (drop_path): Identity()
          )
          (4): ConvNeXtBlock(
            (conv_dw): Conv2d(512, 512, kernel_size=(7, 7), stride=(1, 1), padding=(3, 3), groups=512)
            (norm): LayerNorm((512,), eps=1e-06, elementwise_affine=True)
            (mlp): Mlp(
              (fc1): Linear(in_features=512, out_features=2048, bias=True)
              (act): GELU()
              (drop1): Dropout(p=0.0, inplace=False)
              (norm): Identity()
              (fc2): Linear(in_features=2048, out_features=512, bias=True)
              (drop2): Dropout(p=0.0, inplace=False)
            )
            (shortcut): Identity()
            (drop_path): Identity()
          )
          (5): ConvNeXtBlock(
            (conv_dw): Conv2d(512, 512, kernel_size=(7, 7), stride=(1, 1), padding=(3, 3), groups=512)
            (norm): LayerNorm((512,), eps=1e-06, elementwise_affine=True)
            (mlp): Mlp(
              (fc1): Linear(in_features=512, out_features=2048, bias=True)
              (act): GELU()
              (drop1): Dropout(p=0.0, inplace=False)
              (norm): Identity()
              (fc2): Linear(in_features=2048, out_features=512, bias=True)
              (drop2): Dropout(p=0.0, inplace=False)
            )
            (shortcut): Identity()
            (drop_path): Identity()
          )
          (6): ConvNeXtBlock(
            (conv_dw): Conv2d(512, 512, kernel_size=(7, 7), stride=(1, 1), padding=(3, 3), groups=512)
            (norm): LayerNorm((512,), eps=1e-06, elementwise_affine=True)
            (mlp): Mlp(
              (fc1): Linear(in_features=512, out_features=2048, bias=True)
              (act): GELU()
              (drop1): Dropout(p=0.0, inplace=False)
              (norm): Identity()
              (fc2): Linear(in_features=2048, out_features=512, bias=True)
              (drop2): Dropout(p=0.0, inplace=False)
            )
            (shortcut): Identity()
            (drop_path): Identity()
          )
          (7): ConvNeXtBlock(
            (conv_dw): Conv2d(512, 512, kernel_size=(7, 7), stride=(1, 1), padding=(3, 3), groups=512)
            (norm): LayerNorm((512,), eps=1e-06, elementwise_affine=True)
            (mlp): Mlp(
              (fc1): Linear(in_features=512, out_features=2048, bias=True)
              (act): GELU()
              (drop1): Dropout(p=0.0, inplace=False)
              (norm): Identity()
              (fc2): Linear(in_features=2048, out_features=512, bias=True)
              (drop2): Dropout(p=0.0, inplace=False)
            )
            (shortcut): Identity()
            (drop_path): Identity()
          )
          (8): ConvNeXtBlock(
            (conv_dw): Conv2d(512, 512, kernel_size=(7, 7), stride=(1, 1), padding=(3, 3), groups=512)
            (norm): LayerNorm((512,), eps=1e-06, elementwise_affine=True)
            (mlp): Mlp(
              (fc1): Linear(in_features=512, out_features=2048, bias=True)
              (act): GELU()
              (drop1): Dropout(p=0.0, inplace=False)
              (norm): Identity()
              (fc2): Linear(in_features=2048, out_features=512, bias=True)
              (drop2): Dropout(p=0.0, inplace=False)
            )
            (shortcut): Identity()
            (drop_path): Identity()
          )
          (9): ConvNeXtBlock(
            (conv_dw): Conv2d(512, 512, kernel_size=(7, 7), stride=(1, 1), padding=(3, 3), groups=512)
            (norm): LayerNorm((512,), eps=1e-06, elementwise_affine=True)
            (mlp): Mlp(
              (fc1): Linear(in_features=512, out_features=2048, bias=True)
              (act): GELU()
              (drop1): Dropout(p=0.0, inplace=False)
              (norm): Identity()
              (fc2): Linear(in_features=2048, out_features=512, bias=True)
              (drop2): Dropout(p=0.0, inplace=False)
            )
            (shortcut): Identity()
            (drop_path): Identity()
          )
          (10): ConvNeXtBlock(
            (conv_dw): Conv2d(512, 512, kernel_size=(7, 7), stride=(1, 1), padding=(3, 3), groups=512)
            (norm): LayerNorm((512,), eps=1e-06, elementwise_affine=True)
            (mlp): Mlp(
              (fc1): Linear(in_features=512, out_features=2048, bias=True)
              (act): GELU()
              (drop1): Dropout(p=0.0, inplace=False)
              (norm): Identity()
              (fc2): Linear(in_features=2048, out_features=512, bias=True)
              (drop2): Dropout(p=0.0, inplace=False)
            )
            (shortcut): Identity()
            (drop_path): Identity()
          )
          (11): ConvNeXtBlock(
            (conv_dw): Conv2d(512, 512, kernel_size=(7, 7), stride=(1, 1), padding=(3, 3), groups=512)
            (norm): LayerNorm((512,), eps=1e-06, elementwise_affine=True)
            (mlp): Mlp(
              (fc1): Linear(in_features=512, out_features=2048, bias=True)
              (act): GELU()
              (drop1): Dropout(p=0.0, inplace=False)
              (norm): Identity()
              (fc2): Linear(in_features=2048, out_features=512, bias=True)
              (drop2): Dropout(p=0.0, inplace=False)
            )
            (shortcut): Identity()
            (drop_path): Identity()
          )
          (12): ConvNeXtBlock(
            (conv_dw): Conv2d(512, 512, kernel_size=(7, 7), stride=(1, 1), padding=(3, 3), groups=512)
            (norm): LayerNorm((512,), eps=1e-06, elementwise_affine=True)
            (mlp): Mlp(
              (fc1): Linear(in_features=512, out_features=2048, bias=True)
              (act): GELU()
              (drop1): Dropout(p=0.0, inplace=False)
              (norm): Identity()
              (fc2): Linear(in_features=2048, out_features=512, bias=True)
              (drop2): Dropout(p=0.0, inplace=False)
            )
            (shortcut): Identity()
            (drop_path): Identity()
          )
          (13): ConvNeXtBlock(
            (conv_dw): Conv2d(512, 512, kernel_size=(7, 7), stride=(1, 1), padding=(3, 3), groups=512)
            (norm): LayerNorm((512,), eps=1e-06, elementwise_affine=True)
            (mlp): Mlp(
              (fc1): Linear(in_features=512, out_features=2048, bias=True)
              (act): GELU()
              (drop1): Dropout(p=0.0, inplace=False)
              (norm): Identity()
              (fc2): Linear(in_features=2048, out_features=512, bias=True)
              (drop2): Dropout(p=0.0, inplace=False)
            )
            (shortcut): Identity()
            (drop_path): Identity()
          )
          (14): ConvNeXtBlock(
            (conv_dw): Conv2d(512, 512, kernel_size=(7, 7), stride=(1, 1), padding=(3, 3), groups=512)
            (norm): LayerNorm((512,), eps=1e-06, elementwise_affine=True)
            (mlp): Mlp(
              (fc1): Linear(in_features=512, out_features=2048, bias=True)
              (act): GELU()
              (drop1): Dropout(p=0.0, inplace=False)
              (norm): Identity()
              (fc2): Linear(in_features=2048, out_features=512, bias=True)
              (drop2): Dropout(p=0.0, inplace=False)
            )
            (shortcut): Identity()
            (drop_path): Identity()
          )
          (15): ConvNeXtBlock(
            (conv_dw): Conv2d(512, 512, kernel_size=(7, 7), stride=(1, 1), padding=(3, 3), groups=512)
            (norm): LayerNorm((512,), eps=1e-06, elementwise_affine=True)
            (mlp): Mlp(
              (fc1): Linear(in_features=512, out_features=2048, bias=True)
              (act): GELU()
              (drop1): Dropout(p=0.0, inplace=False)
              (norm): Identity()
              (fc2): Linear(in_features=2048, out_features=512, bias=True)
              (drop2): Dropout(p=0.0, inplace=False)
            )
            (shortcut): Identity()
            (drop_path): Identity()
          )
          (16): ConvNeXtBlock(
            (conv_dw): Conv2d(512, 512, kernel_size=(7, 7), stride=(1, 1), padding=(3, 3), groups=512)
            (norm): LayerNorm((512,), eps=1e-06, elementwise_affine=True)
            (mlp): Mlp(
              (fc1): Linear(in_features=512, out_features=2048, bias=True)
              (act): GELU()
              (drop1): Dropout(p=0.0, inplace=False)
              (norm): Identity()
              (fc2): Linear(in_features=2048, out_features=512, bias=True)
              (drop2): Dropout(p=0.0, inplace=False)
            )
            (shortcut): Identity()
            (drop_path): Identity()
          )
          (17): ConvNeXtBlock(
            (conv_dw): Conv2d(512, 512, kernel_size=(7, 7), stride=(1, 1), padding=(3, 3), groups=512)
            (norm): LayerNorm((512,), eps=1e-06, elementwise_affine=True)
            (mlp): Mlp(
              (fc1): Linear(in_features=512, out_features=2048, bias=True)
              (act): GELU()
              (drop1): Dropout(p=0.0, inplace=False)
              (norm): Identity()
              (fc2): Linear(in_features=2048, out_features=512, bias=True)
              (drop2): Dropout(p=0.0, inplace=False)
            )
            (shortcut): Identity()
            (drop_path): Identity()
          )
          (18): ConvNeXtBlock(
            (conv_dw): Conv2d(512, 512, kernel_size=(7, 7), stride=(1, 1), padding=(3, 3), groups=512)
            (norm): LayerNorm((512,), eps=1e-06, elementwise_affine=True)
            (mlp): Mlp(
              (fc1): Linear(in_features=512, out_features=2048, bias=True)
              (act): GELU()
              (drop1): Dropout(p=0.0, inplace=False)
              (norm): Identity()
              (fc2): Linear(in_features=2048, out_features=512, bias=True)
              (drop2): Dropout(p=0.0, inplace=False)
            )
            (shortcut): Identity()
            (drop_path): Identity()
          )
          (19): ConvNeXtBlock(
            (conv_dw): Conv2d(512, 512, kernel_size=(7, 7), stride=(1, 1), padding=(3, 3), groups=512)
            (norm): LayerNorm((512,), eps=1e-06, elementwise_affine=True)
            (mlp): Mlp(
              (fc1): Linear(in_features=512, out_features=2048, bias=True)
              (act): GELU()
              (drop1): Dropout(p=0.0, inplace=False)
              (norm): Identity()
              (fc2): Linear(in_features=2048, out_features=512, bias=True)
              (drop2): Dropout(p=0.0, inplace=False)
            )
            (shortcut): Identity()
            (drop_path): Identity()
          )
          (20): ConvNeXtBlock(
            (conv_dw): Conv2d(512, 512, kernel_size=(7, 7), stride=(1, 1), padding=(3, 3), groups=512)
            (norm): LayerNorm((512,), eps=1e-06, elementwise_affine=True)
            (mlp): Mlp(
              (fc1): Linear(in_features=512, out_features=2048, bias=True)
              (act): GELU()
              (drop1): Dropout(p=0.0, inplace=False)
              (norm): Identity()
              (fc2): Linear(in_features=2048, out_features=512, bias=True)
              (drop2): Dropout(p=0.0, inplace=False)
            )
            (shortcut): Identity()
            (drop_path): Identity()
          )
          (21): ConvNeXtBlock(
            (conv_dw): Conv2d(512, 512, kernel_size=(7, 7), stride=(1, 1), padding=(3, 3), groups=512)
            (norm): LayerNorm((512,), eps=1e-06, elementwise_affine=True)
            (mlp): Mlp(
              (fc1): Linear(in_features=512, out_features=2048, bias=True)
              (act): GELU()
              (drop1): Dropout(p=0.0, inplace=False)
              (norm): Identity()
              (fc2): Linear(in_features=2048, out_features=512, bias=True)
              (drop2): Dropout(p=0.0, inplace=False)
            )
            (shortcut): Identity()
            (drop_path): Identity()
          )
          (22): ConvNeXtBlock(
            (conv_dw): Conv2d(512, 512, kernel_size=(7, 7), stride=(1, 1), padding=(3, 3), groups=512)
            (norm): LayerNorm((512,), eps=1e-06, elementwise_affine=True)
            (mlp): Mlp(
              (fc1): Linear(in_features=512, out_features=2048, bias=True)
              (act): GELU()
              (drop1): Dropout(p=0.0, inplace=False)
              (norm): Identity()
              (fc2): Linear(in_features=2048, out_features=512, bias=True)
              (drop2): Dropout(p=0.0, inplace=False)
            )
            (shortcut): Identity()
            (drop_path): Identity()
          )
          (23): ConvNeXtBlock(
            (conv_dw): Conv2d(512, 512, kernel_size=(7, 7), stride=(1, 1), padding=(3, 3), groups=512)
            (norm): LayerNorm((512,), eps=1e-06, elementwise_affine=True)
            (mlp): Mlp(
              (fc1): Linear(in_features=512, out_features=2048, bias=True)
              (act): GELU()
              (drop1): Dropout(p=0.0, inplace=False)
              (norm): Identity()
              (fc2): Linear(in_features=2048, out_features=512, bias=True)
              (drop2): Dropout(p=0.0, inplace=False)
            )
            (shortcut): Identity()
            (drop_path): Identity()
          )
          (24): ConvNeXtBlock(
            (conv_dw): Conv2d(512, 512, kernel_size=(7, 7), stride=(1, 1), padding=(3, 3), groups=512)
            (norm): LayerNorm((512,), eps=1e-06, elementwise_affine=True)
            (mlp): Mlp(
              (fc1): Linear(in_features=512, out_features=2048, bias=True)
              (act): GELU()
              (drop1): Dropout(p=0.0, inplace=False)
              (norm): Identity()
              (fc2): Linear(in_features=2048, out_features=512, bias=True)
              (drop2): Dropout(p=0.0, inplace=False)
            )
            (shortcut): Identity()
            (drop_path): Identity()
          )
          (25): ConvNeXtBlock(
            (conv_dw): Conv2d(512, 512, kernel_size=(7, 7), stride=(1, 1), padding=(3, 3), groups=512)
            (norm): LayerNorm((512,), eps=1e-06, elementwise_affine=True)
            (mlp): Mlp(
              (fc1): Linear(in_features=512, out_features=2048, bias=True)
              (act): GELU()
              (drop1): Dropout(p=0.0, inplace=False)
              (norm): Identity()
              (fc2): Linear(in_features=2048, out_features=512, bias=True)
              (drop2): Dropout(p=0.0, inplace=False)
            )
            (shortcut): Identity()
            (drop_path): Identity()
          )
          (26): ConvNeXtBlock(
            (conv_dw): Conv2d(512, 512, kernel_size=(7, 7), stride=(1, 1), padding=(3, 3), groups=512)
            (norm): LayerNorm((512,), eps=1e-06, elementwise_affine=True)
            (mlp): Mlp(
              (fc1): Linear(in_features=512, out_features=2048, bias=True)
              (act): GELU()
              (drop1): Dropout(p=0.0, inplace=False)
              (norm): Identity()
              (fc2): Linear(in_features=2048, out_features=512, bias=True)
              (drop2): Dropout(p=0.0, inplace=False)
            )
            (shortcut): Identity()
            (drop_path): Identity()
          )
        )
      )
      (3): ConvNeXtStage(
        (downsample): Sequential(
          (0): LayerNorm2d((512,), eps=1e-06, elementwise_affine=True)
          (1): Conv2d(512, 1024, kernel_size=(2, 2), stride=(2, 2))
        )
        (blocks): Sequential(
          (0): ConvNeXtBlock(
            (conv_dw): Conv2d(1024, 1024, kernel_size=(7, 7), stride=(1, 1), padding=(3, 3), groups=1024)
            (norm): LayerNorm((1024,), eps=1e-06, elementwise_affine=True)
            (mlp): Mlp(
              (fc1): Linear(in_features=1024, out_features=4096, bias=True)
              (act): GELU()
              (drop1): Dropout(p=0.0, inplace=False)
              (norm): Identity()
              (fc2): Linear(in_features=4096, out_features=1024, bias=True)
              (drop2): Dropout(p=0.0, inplace=False)
            )
            (shortcut): Identity()
            (drop_path): Identity()
          )
          (1): ConvNeXtBlock(
            (conv_dw): Conv2d(1024, 1024, kernel_size=(7, 7), stride=(1, 1), padding=(3, 3), groups=1024)
            (norm): LayerNorm((1024,), eps=1e-06, elementwise_affine=True)
            (mlp): Mlp(
              (fc1): Linear(in_features=1024, out_features=4096, bias=True)
              (act): GELU()
              (drop1): Dropout(p=0.0, inplace=False)
              (norm): Identity()
              (fc2): Linear(in_features=4096, out_features=1024, bias=True)
              (drop2): Dropout(p=0.0, inplace=False)
            )
            (shortcut): Identity()
            (drop_path): Identity()
          )
          (2): ConvNeXtBlock(
            (conv_dw): Conv2d(1024, 1024, kernel_size=(7, 7), stride=(1, 1), padding=(3, 3), groups=1024)
            (norm): LayerNorm((1024,), eps=1e-06, elementwise_affine=True)
            (mlp): Mlp(
              (fc1): Linear(in_features=1024, out_features=4096, bias=True)
              (act): GELU()
              (drop1): Dropout(p=0.0, inplace=False)
              (norm): Identity()
              (fc2): Linear(in_features=4096, out_features=1024, bias=True)
              (drop2): Dropout(p=0.0, inplace=False)
            )
            (shortcut): Identity()
            (drop_path): Identity()
          )
        )
      )
    )
    (norm_pre): Identity()
    (head): NormMlpClassifierHead(
      (global_pool): SelectAdaptivePool2d(pool_type=avg, flatten=Identity())
      (norm): LayerNorm2d((1024,), eps=1e-06, elementwise_affine=True)
      (flatten): Flatten(start_dim=1, end_dim=-1)
      (pre_logits): Identity()
      (drop): Dropout(p=0.0, inplace=False)
      (fc): Linear(in_features=1024, out_features=1000, bias=True)
    )
  )
  (projector): Linear(in_features=1024, out_features=1376, bias=True)
  (omni_heads): ModuleList(
    (0): Linear(in_features=1376, out_features=14, bias=True)
  )
)
Student and Teacher are built: they are both convnext_base network.
0.0
##DEBUG## Training CheXpertMini with head 0
##DEBUG## Target shape: torch.Size([4, 14])
Traceback (most recent call last):
  File "/home/divesh-basina/Documents/cse507/ARK/Ark/Ark_MICCAI2023/main_ark.py", line 142, in <module>
    main(args)
  File "/home/divesh-basina/Documents/cse507/ARK/Ark/Ark_MICCAI2023/main_ark.py", line 138, in main
…
